MedicalBot/baseline_a2c/model/data.pth (torch, 3863 bytes, 6 tensors)

l1.weight f4 [8, 29]
000000 a7 b7 34 3f 0c e9 97 3e 7b 0a f2 3d 49 a3 11 bf
       0.7059273 0.29669988 0.11818405 -0.5688978
000010 79 d9 01 3f 78 eb 04 3f c1 f1 28 3e 43 16 f6 3e
       0.5072246 0.51921797 0.16498472 0.4806386
000020 1e 8a 22 bf a2 01 29 3e a5 f4 57 3e 5b 26 b9 3e
       -0.63492 0.16504529 0.21089418 0.36162075
000030 26 96 24 3f f9 b7 00 3f ff 06 97 3e 17 b9 9d 3d
       0.6429161 0.5028072 0.29497525 0.07701319
000040 09 94 d0 3e fc ba db be b7 a8 33 3f 5d ac 47 3f
       0.40737942 -0.42916095 0.70179313 0.7799738
000050 da 97 9b be 90 7f c8 3e b2 4c 17 bc ba 26 93 3f
       -0.3038929 0.39159822 -0.009234594 1.1496193
000060 39 22 01 3f b3 74 b7 3e f5 70 57 3d 43 80 60 bf
       0.50442845 0.35831222 0.05259796 -0.8769571
000070 c4 93 d5 3e 24 07 dd 3e a2 ff 85 3e e9 a9 0b 3f
       0.417143 0.4316951 0.26171595 0.5455614
000080 12 cb 21 bf b5 bc 24 3f 12 6e 6b be 34 ce 07 3e
       -0.63200486 0.64350444 -0.22991207 0.13262254
000090 5e 2c df 3e 2d c7 21 bf a3 d9 c8 3d 13 1b b2 3d
       0.43588537 -0.63194543 0.09807136 0.0869657
0000a0 f9 0f 46 3f d8 05 1b 3f f0 6e c5 3e f2 a0 a6 3e
       0.7736812 0.6055579 0.385612 0.32544667
0000b0 c0 b6 7b 3e 3a 75 0a 3f 16 d4 c1 be 47 b9 2b bf
       0.24581432 0.54085124 -0.3785712 -0.67079586
0000c0 7e 8e 31 bf cd 10 59 be d6 cb fb bd b4 df 77 3e
       -0.6935805 -0.21197815 -0.12294738 0.2420643
0000d0 98 ca 6c 3f d2 9a c8 3e 78 1f cd 3e 45 82 cc 3e
       0.92496634 0.3918062 0.4006307 0.39943138
0000e0 b9 a1 7e 3f 53 0f 5c 3e 02 91 39 3d 39 5e a6 3e
       0.9946552 0.2149022 0.045304306 0.3249376
0000f0 88 fc ca 3e c5 73 59 be 24 26 16 3f c5 79 5e be
       0.3964579 -0.21235569 0.5865195 -0.21726139
000100 c8 55 f2 ba cc b6 0a 3f 4f 2f 2c be a2 bc 4e be
       -0.00184887 0.54185176 -0.16814922 -0.20189145
000110 4c ad 49 be 0f 0c 40 3f f4 cf ea 3d 9e cc 51 3f
       -0.19695014 0.750184 0.11465445 0.81952846
000120 d5 4b 01 3f 8a 2c fd be 57 f7 10 3f b0 c3 90 be
       0.50506335 -0.49448043 0.5662741 -0.28274298
000130 8d f2 82 be f8 f9 19 be 79 9c 7a 3d 7c af 4c be
       -0.25575677 -0.15036762 0.06118438 -0.19988817
000140 cc 89 5e 3e 62 82 00 3e b7 aa 49 3e 1f ab 05 3f
       0.21732253 0.12549737 0.19694029 0.52214235
000150 91 4a cd 3e b9 b1 95 3f ab 94 c9 3e 15 96 c1 3e
       0.40095952 1.1694862 0.39371237 0.37809816
000160 f5 60 02 be b0 cf e4 be 3f 8f b6 3d 9f 87 dc be
       -0.12732299 -0.44689703 0.08914041 -0.4307222
000170 f6 2c 81 be ab ae 0e 3f 76 65 84 be 0f 43 aa 3d
       -0.25229615 0.5573527 -0.2585866 0.08313572
000180 8e 78 8a 3e a7 d2 f3 3e db 5c 28 bf 3d da 1b 3f
       0.270451 0.47621652 -0.65766686 0.6087988
000190 f3 17 04 bf c2 a6 cf be d6 f2 58 3f f8 b4 45 be
       -0.51599044 -0.40556914 0.8474554 -0.19307315
0001a0 6a d7 8d 3e 76 a0 32 bf 04 be 33 bf b3 d6 b0 3d
       0.2770341 -0.69776094 -0.70211816 0.086347006
0001b0 8c ba 29 3f 15 94 86 3e c6 d5 63 3f b9 97 fd 3e
       0.6630027 0.26284853 0.8899807 0.49529818
0001c0 6d e8 bc be cc e4 b0 3d b9 36 2b bd c7 2f ee 3e
       -0.36896077 0.086373895 -0.041800234 0.46520826
0001d0 42 5d 25 be f6 e8 b6 3e 47 f9 b5 bd 7d d7 22 3f
       -0.16148856 0.3572461 -0.088854365 0.6361006
0001e0 0e c2 75 3e 14 5d 21 be f7 84 ff 3e bb 7e bb 3e
       0.23999807 -0.15758163 0.49906132 0.36620125
0001f0 2e 73 24 3f ff 3e c5 3e 98 75 04 3f 62 f2 14 3b
       0.6423825 0.38524625 0.51741934 0.002272748
000200 fd b4 ad be 5a 31 4a be a7 57 a8 3d 31 61 4b 3f
       -0.33927146 -0.19745389 0.08219843 0.7944518
000210 95 c8 76 3e 4c 12 ee 3e bf 5c 5e bf d8 0a 7b bf
       0.24099953 0.46498334 -0.8686027 -0.9806342
000220 66 71 10 3f 7b 12 f6 3e 97 1a 90 3e 9e 0b 57 bf
       0.5642303 0.48060974 0.28145286 -0.840021
000230 ae f4 88 be 7d e0 06 3e 15 4d 19 3e eb 1e 37 be
       -0.26749176 0.13171573 0.1497081 -0.17882888
000240 60 f3 16 3e 48 aa cb 3d b6 e2 31 3e 59 07 ec 3d
       0.14741278 0.09944588 0.1737164 0.11524839
000250 0a b1 10 be ac 8a 36 3e 64 d4 0f be 0d 39 38 be
       -0.14130035 0.17826337 -0.14045864 -0.17990513
000260 b2 a6 e9 b9 ee 14 5a bb 4a 9c 20 3b 8a 2f 07 be
       -0.0004456542 -0.0033276635 0.0024507218 -0.13201728
000270 d8 aa 1b 3d 88 1c df 3d ba 4b 80 bd 64 a6 fe 3c
       0.038004726 0.10894114 -0.06264444 0.0310852
000280 b2 31 99 3c bc c0 9b 3c 58 c9 ae bd 92 74 2a 3d
       0.018700454 0.019012801 -0.08534497 0.041615076
000290 67 07 ee bd 66 bf 11 3e ac 67 a9 3d d2 47 1d be
       -0.11622506 0.14233169 0.08271727 -0.15359429
0002a0 b3 57 36 3d b2 0a 65 bd 4f 4a d8 bc fd 66 1a be
       0.04451723 -0.055918403 -0.02640262 -0.1507835
0002b0 af 62 05 3e da c1 8b bd 16 77 03 3e f9 b0 a0 3e
       0.13025926 -0.068240836 0.12838396 0.3138502
0002c0 00 b8 c9 3e 7e 95 11 3f 15 a2 d3 3e d2 58 f3 3e
       0.39398193 0.5686873 0.41334596 0.47528702
0002d0 59 8e 0a 3e 29 c5 76 3e 6a 78 46 3f 39 8d 0a 3e
       0.13530864 0.24098648 0.7752749 0.13530435
0002e0 b8 cb 76 3e 30 2f 23 3f ed a0 d0 3e 27 03 88 3e
       0.2410115 0.6374388 0.40747777 0.26564905
0002f0 0a 18 c5 3e 1e d3 c7 3d a0 0b f9 3e 25 d4 ef 3e
       0.38494903 0.09757064 0.48641682 0.4684154
000300 62 d5 f2 3e e4 84 38 3f 67 75 bc 3e 51 97 d6 3e
       0.47428423 0.72077775 0.3680832 0.4191232
000310 ea 40 f9 3a 4b 98 6b 3e eb 4f 18 3e 8d 77 86 3e
       0.0019016538 0.23007314 0.14874236 0.26263085
000320 bd 97 af bd 0d a6 66 bf f5 7a bc 3e 18 fb 55 be
       -0.08573864 -0.90097123 0.3681256 -0.20896566
000330 37 73 a1 3e 77 6b 02 3f 8c a8 21 3f 04 3c db 3e
       0.31533214 0.5094523 0.6314781 0.42819226
000340 39 9d 96 3e 97 26 47 be e9 17 15 3f 10 42 31 3f
       0.29416826 -0.19448315 0.5823961 0.6924143
000350 4c 35 47 be bb 6e dc bd 6e ca 0e 3f b8 71 9a be
       -0.19453925 -0.10763308 0.55777633 -0.30164886
000360 e9 7b 3e 3f cb 47 9c 3e c7 7f 05 bf b6 07 4f 3e
       0.7440782 0.30523524 -0.521481 0.20217785
000370 0c 13 46 3f 07 87 ec 3e 5f 53 f6 3e 56 c4 4f 3f
       0.77372813 0.46196768 0.48110482 0.8115896
000380 04 86 4e be e9 97 9f 3d 1d bc 42 bf 46 64 52 be
       -0.2016831 0.077926464 -0.7606829 -0.20546064
000390 4d 6e db 3e d7 11 58 bd b3 17 cd be 9e 1a 37 3d
       0.4285759 -0.05275139 -0.40057144 0.04470312

l1.bias f4 [8]
000000 32 87 22 3f 34 c6 21 3f 8f 41 32 3f 28 72 30 3f
       0.6348754 0.6319306 0.69631284 0.6892419
000010 9c aa 44 3f 4c 06 37 be c7 07 2b 3f 37 4b 37 3f
       0.7682283 -0.17873496 0.6680874 0.71599144

l2.weight f4 [8, 8]
000000 49 fa 06 bf c4 df 80 bf d7 d1 49 bf ed 5e 30 3f
       -0.52725655 -1.0068288 -0.78835815 0.68894845
000010 2f 28 6a 3f 03 b8 2f bb a6 3e 68 3f 78 ac 5c 3f
       0.91467565 -0.002681256 0.90720594 0.86200666
000020 c4 89 08 3f 59 80 be be 79 c5 38 bf c0 cf 22 bf
       0.53335214 -0.37207296 -0.7217632 -0.6359825
000030 f3 f8 be be ba d0 f9 3d e5 f6 26 3f 51 9c f3 3e
       -0.37299308 0.121980146 0.6522048 0.47580197
000040 76 29 94 3f b5 9c a5 bd 31 0d 23 bf f1 32 13 3f
       1.1575153 -0.0808653 -0.63692003 0.57499605
000050 6a 0e d6 bc a0 b3 83 be 06 ee 41 3f ab d2 47 bf
       -0.02612992 -0.2572298 0.7575382 -0.7805583
000060 5c 3c 6b be 7b b1 84 3e 4b a6 86 be 78 21 d8 3d
       -0.22972244 0.25916657 -0.26298746 0.10553259
000070 30 13 0e be 4c 2a fc 3d e9 2d 99 be 36 a6 59 be
       -0.13874507 0.12312755 -0.2991784 -0.2125481
000080 b5 ab 9e 3f e5 0c 25 3f 17 3e 85 3f 55 a4 f8 be
       1.2396151 0.644728 1.0409573 -0.48562875
000090 64 7b 56 bf b6 c7 f9 3d 6d e7 56 3f 12 eb 38 3f
       -0.8378203 0.12196295 0.8394688 0.7223369
0000a0 9e 00 8e 3d 90 c9 6e bf 51 fc e8 be 1b b8 26 3d
       0.069337115 -0.9327631 -0.45505002 0.04070292
0000b0 eb 8d 7a 3f 76 0c 0b 3e ec df 94 3f 9a 57 93 3f
       0.978728 0.13578972 1.1630836 1.1511109
0000c0 f3 47 96 be 94 a3 99 3f f7 75 74 3f ec 0c a9 3f
       -0.29351768 1.2003045 0.954925 1.3207068
0000d0 ba 47 ae 3f 67 c1 5d 3e 29 88 8d bd 3c fd c4 be
       1.3615639 0.21655808 -0.06910736 -0.38474452
0000e0 a6 b1 3a 3e d2 2a 80 be c5 4c 0c 3f 2f 99 49 bf
       0.1823183 -0.2503267 0.5480464 -0.78749365
0000f0 1a 51 aa 3e dc f5 93 be 82 15 3e 3f 07 46 99 3f
       0.33265 -0.28898513 0.7425157 1.1974496

l2.bias f4 [8]
000000 46 7c 93 3d 49 0a eb bd 61 27 84 bd 79 0d a2 be
       0.07201438 -0.11476571 -0.064528234 -0.31650904
000010 03 fd 28 3d b2 41 11 3f 61 6d 59 3f 89 26 43 3e
       0.041256916 0.5674087 0.84932524 0.19057669

l3.weight f4 [6, 8]
000000 e3 0d 48 3f fa 20 2f bf 02 9c 86 bf 8e a9 9e be
       0.7814619 -0.68409693 -1.051636 -0.30988735
000010 fe bf 3a bf 10 ba 0d 3f 67 15 a0 be 4c 29 0b 3f
       -0.72949207 0.55362034 -0.3126633 0.5435989
000020 a3 e1 95 bf ad ef 6a bf 54 04 89 bf 02 20 0f be
       -1.1709484 -0.91771966 -1.0704446 -0.13977054
000030 c6 b7 26 3f 88 dc 04 3e 2e fc 88 be 38 37 4f 3f
       0.65124166 0.12974751 -0.26754898 0.8094363
000040 74 9b db be a5 48 64 3f e6 01 56 3f 75 63 b2 be
       -0.4289204 0.89173347 0.83596647 -0.34841505
000050 90 cd 0b bc 9c 1f 9d 3e 97 94 92 bf 2d 4f ad 3e
       -0.008532897 0.3068818 -1.1451596 0.3384947
000060 be 0c 15 3f 70 40 a6 be 0c 0e 92 3f af 18 56 be
       0.5822257 -0.32471037 1.1410537 -0.20907854
000070 2d 65 af bf be 9e 63 3e 7f 3c 37 3c 12 da 8d bf
       -1.3702751 0.22228524 0.011183857 -1.1082175
000080 c4 e5 2d bf 20 2e 3d bf 59 0f 66 3f 42 22 e2 3d
       -0.6792872 -0.73898506 0.8986717 0.110416904
000090 66 21 1d 3f a9 89 4b bf 3b 79 04 be 8b dd 81 bf
       0.61379087 -0.7950693 -0.12936871 -1.0145735
0000a0 71 92 6e bf 1d 8f c1 bb 5d e9 bb bf 71 d9 ab bd
       -0.931922 -0.005906953 -1.4680592 -0.08391083
0000b0 c7 1f 14 bf 15 90 2d bf 68 64 27 3f 60 8a 73 bf
       -0.5786099 -0.67797977 0.6538758 -0.9513302

l3.bias f4 [6]
000000 98 8e 9e be 76 57 86 be 72 12 cd bb 7c 25 bf bb
       -0.30968165 -0.26238602 -0.0062583024 -0.005833326
000010 c4 e6 da 3d 55 86 23 3f
       0.10688546 0.6387685
